carbon_nlinear/models/epoch_3000.pt (torch, 13415 bytes, 2 tensors)

Linear.weight f4 [24, 128]
0.009101147 0.005870538 -0.005294357 -0.023515806 0.03663253 -0.0019799948 -0.0060329894 -0.08394774
0.07912732 -0.006466896 0.021585919 -0.012887551 0.017291073 -0.003480031 -0.017225577 0.025225969
-0.018023707 -0.007886748 -0.0045039547 0.021059813 -0.006673259 -0.0062259473 0.008731121 0.024917437
-0.028946871 -0.0069338107 -0.007821087 0.028531512 -0.02018307 -0.0089769075 0.04249182 -0.12917374
0.08968681 0.0018001968 0.0069500157 0.020398887 -0.011659639 -0.016125781 -0.0023444644 0.028324248
-0.021166582 -0.005384063 0.022384627 -0.021404982 0.01645292 0.0036833705 -0.029042143 -0.008119758
0.017297814 -0.008919074 0.007856362 0.010676804 -0.014475212 0.020324895 -0.009345431 -0.07787697
0.08531619 0.0038805632 -0.004837074 -0.0006935328 -0.018660966 0.032781705 -0.021348355 0.0014420238
0.0017051052 -0.009718628 0.010567782 -0.00092314486 -0.008117314 -0.009150153 0.018113473 0.014084263
0.007878255 -0.012113541 0.010103218 -0.008167225 -0.008531085 -0.0043192464 0.007237233 -0.08996737
0.09640618 -0.025159694 0.013783131 -0.0031541663 0.007624163 -0.031523924 0.033604655 -0.006056386
3.295407e-05 0.008032053 0.023035828 -0.029749231 -0.009602415 0.010213079 -0.0063138884 0.010776492
-0.031688865 0.018994724 0.0010792708 -0.0068803914 -0.015150721 0.001584831 -0.010438063 -0.19153935
0.14893217 0.08785366 -0.009837279 -0.0015949925 0.009544121 0.029387848 -0.022239348 0.04433847
-0.03400549 -0.0058285436 -0.0175913 0.008348597 0.018039452 -0.009749825 -0.011647151 0.065355755
-0.041423503 -0.008995068 -0.004742548 0.0037613215 -0.01043279 0.06763689 -0.30602747 -0.06976323
0.024253337 -4.5383636e-05 0.0036292842 -0.033986352 0.019726297 0.03501514 -0.009166608 -0.107884824
0.012398018 0.070374556 0.020266851 0.00429392 0.012192404 0.0062042996 -0.016673995 0.007799656
0.0066612377 -0.029405238 -0.011147902 0.016848244 0.018963322 -0.023013953 0.015129214 0.0276034
-0.004034923 -0.040871557 -0.011567033 0.023102244 0.0069586397 -0.033028323 0.044360023 -0.11690925
-0.016409218 0.0877587 0.014250693 0.027888807 0.008573519 -0.030470923 -0.021397073 0.03334792
0.0030434744 -0.02899862 0.022649052 -0.004292323 -0.0003632135 0.020690545 -0.03338166 -0.0363378
0.010662137 0.0069296528 0.0026961456 0.018009948 -0.0040361583 0.008023609 0.009944012 -0.10382261
0.026037488 0.08977526 -0.0028447774 -0.0050027403 -0.024113981 0.021994255 0.005395421 -0.016937964
-0.00055531046 -0.0058851372 0.00041694712 0.010787318 -0.011971004 -0.01684004 0.010310055 0.037323955
0.020768339 -0.0041692723 -0.0011145835 0.0011527591 -0.019370878 -0.013181514 0.0037037109 -0.1008152
0.02567377 0.06598393 -0.008285499 0.011831221 0.0036721309 -0.027936373 0.006756547 0.026748834
-0.0042878883 0.007355911 0.036951065 -0.011447398 -0.04427381 0.0061431653 -0.0014922018 0.010392041
-0.031841207 -0.0046728607 0.017749678 -0.0058814185 -0.025708484 -0.012948822 -0.011204875 -0.24227451
-0.011469919 0.25626564 0.07486396 -0.011128575 0.0093966955 0.045501843 0.0025622495 0.031426094
0.003831049 -0.042278714 -0.026422873 -0.007899625 0.03004331 0.006650386 -0.024298014 0.06792897
0.013850085 -0.05128556 -0.014814645 0.00013872288 -0.008942647 0.071000375 -0.30231184 -0.084145315
00000000: fa1c 153c a45d c03b 497c adbb 38a4 c0bc
00000010: fe0b 163d cdc2 01bb 62b0 c5bb cbec abbd
00000020: 810d a23d 41e8 d3bb f4d4 b03c 4f26 53bc
00000030: 02a6 8d3c 3b11 64bb a71c 8dbc b1a6 ce3c
00000040: 74a6 93bc 6b37 01bc e995 93bb a185 ac3c
00000050: 5bab dabb 0803 ccbb fa0c 0f3c a71f cc3c
00000060: fd21 edbc 0535 e3bb 0424 00bc ebba e93c
00000070: f756 a5bc e113 13bc e70b 2e3d 1f46 04be
00000080: b8ad b73d 95f4 eb3a f5bc e33b 911b a73c
00000090: 1208 3fbc 371a 84bc 96a5 19bb 4108 e83c
000000a0: 8a65 adbc cb6c b0bb f75f b73c 8059 afbc
000000b0: 46c8 863c b464 713b cae9 edbc bc08 05bc
000000c0: 25b4 8d3c 4f21 12bc f8b7 003c c3ed 2e3c
000000d0: 7129 6dbc 6580 a63c 941d 19bc f67d 9fbd
000000e0: 41ba ae3d 0c51 7e3b 5180 9ebb 33ce 35ba
000000f0: e2de 98bc 1c46 063d bfe2 aebc 4a02 bd3a
00000100: d67d df3a e13a 1fbc 7e24 2d3c 34ff 71ba
00000110: 7cfe 04bc 86ea 15bc b562 943c aec1 663c
00000120: cc13 013c e077 46bc f887 253c d3cf 05bc
00000130: f7c5 0bbc 7788 8dbb 5026 ed3b d040 b8bd
00000140: 9a70 c53d b41b cebc a4d2 613c 21b6 4ebb
00000150: 1dd4 f93b 3b1f 01bd 09a5 093d a674 c6bb
00000160: 2a38 0a38 df98 033c a2b5 bc3c a9b4 f3bc
00000170: 7353 1dbc c254 273c bce4 cebb e28f 303c
00000180: 2fcc 01bd d39a 9b3c 5276 8d3a e874 e1bb
00000190: bb3a 78bc 1bba cf3a 6904 2bbc e422 44be
000001a0: ad81 183e 9fec b33d 8a2c 21bc 110f d1ba
000001b0: f25e 1c3c c9be f03c 4b2f b6bc 419c 353d
000001c0: 5749 0bbd 5efd bebb a11b 90bc 8ec8 083c
000001d0: 79c7 933c bbbd 1fbc b1d3 3ebc 3dd9 853d
000001e0: b1ab 29bd 0d60 13bc 6067 9bbb 8180 763b
000001f0: 4bee 2abc 3685 8a3d a2af 9cbe 06e0 8ebd
00000200: efae c63c 4f5a 3eb8 49d9 6d3b 4635 0bbd
00000210: 0b99 a13c 096c 0f3d 8a2f 16bc b8f2 dcbd
00000220: 0e21 4b3c 8920 903d ab06 a63c 03b4 8c3b
00000230: a6c2 473c 704d cb3b e797 88bc 4294 ff3b
00000240: 8346 da3b 41e3 f0bc b1a5 36bc 5405 8a3c
00000250: f858 9b3c c287 bcbc 86e0 773c 8720 e23c
00000260: 6337 84bb ef68 27bd a783 3dbc eb40 bd3c
00000270: 4d05 e43b b548 07bd dbb2 353d 1e6e efbd
00000280: a06c 86bc d5ba b33d bd7b 693c 1177 e43c
00000290: f277 0c3c 289e f9bc ea48 afbc d497 083d
000002a0: 0775 473b 848e edbc 818a b93c 9da6 8cbb
000002b0: b16d beb9 387f a93c 35bb 08bd f2d6 14bd
000002c0: 3eb0 2e3c 2412 e33b d1b1 303b 9989 933c
000002d0: c041 84bb 7575 033c 36ec 223c f3a0 d4bd
000002e0: 924c d53c 17dc b73d 726f 3abb 07ee a3bb
000002f0: af8a c5bc 4c2d b43c 12cc b03b 7cc1 8abc
00000300: 4192 11ba 1cd8 c0bb b299 da39 4bbd 303c
00000310: 0822 44bc 20f4 89bc 81eb 283c 01e1 183d
00000320: 5d22 aa3c 649e 88bb 3717 92ba 2d18 973a
00000330: adaf 9ebc 47f7 57bc f5b9 723b 3378 cebd
00000340: cc51 d23c 9522 873d e7bf 07bc bdd7 413c
00000350: 22a8 703b d2da e4bc 0666 dd3b 5f20 db3c
00000360: 6a81 8cbb db09 f13b 005a 173d de8d 3bbc
00000370: 7458 35bd 9b4c c93b fc95 c3ba 6143 2a3c
00000380: ed6b 02bd cc1e 99bb c667 913c eab8 c0bb
00000390: 999a d2bc 4c27 54bc a794 37bc cf16 78be
000003a0: 54ec 3bbc 4035 833e 4752 993d a054 36bc
000003b0: 99f4 193c 2460 3a3d 6aeb 273b a6b8 003d
000003c0: 5612 7b3b 722c 2dbd c874 d8bc 6e6d 01bc
000003d0: 631d f63c 7beb d93b a10c c7bc 581e 8b3d
000003e0: 78eb 623c cf10 52bd 20b9 72bc 2476 1139
000003f0: 2e84 12bc a568 913d 9ec8 9abe 6154 acbd

Linear.bias f4 [24]
-4.5906603e-05 -8.396486e-05 -0.00010582493 -0.000116644835 -0.00011937771 -0.000120693265 -0.000121482626 -0.00012092388
-0.000123535 -0.00014886589 -0.00018563298 -0.00022881725 -0.0002817766 -0.00034597286 -0.00041587764 -0.00048059694
-0.000541169 -0.0005953097 -0.0006473651 -0.00069986656 -0.0007516476 -0.00080940576 -0.0008612883 -0.00090463454
00000000: d78b 40b8 4a16 b0b8 54ee ddb8 389f f4b8
00000010: 6c5a fab8 b41c fdb8 7dc4 feb8 8498 fdb8
00000020: 2d89 01b9 e218 1cb9 79a6 42b9 aaee 6fb9
00000030: 6abb 93b9 b163 b5b9 270a dab9 a1f8 fbb9
00000040: 3ddd 0dba 8f0e 1cba f0b3 29ba 4077 37ba
00000050: 370a 45ba 4d2e 54ba 14c8 61ba ff24 6dba
